…
<figure class="highlight python"><table><tr><td class="code"><pre><span class="line">model = paddle.Model(network)</span><br><span class="line">model.summary((-<span class="number">1</span>, ) + <span class="built_in">tuple</span>(get(<span class="string">&#x27;image_shape&#x27;</span>)))</span><br></pre></td></tr></table></figure>
<figure class="highlight plaintext"><table><tr><td class="code"><pre><span class="line">-------------------------------------------------------------------------------</span><br><span class="line">   Layer (type)         Input Shape          Output Shape         Param #</span><br><span class="line">===============================================================================</span><br><span class="line">     Conv2D-1        [[1, 3, 224, 224]]   [1, 64, 112, 112]        9,408</span><br><span class="line">   BatchNorm2D-1    [[1, 64, 112, 112]]   [1, 64, 112, 112]         256</span><br><span class="line">      ReLU-1        [[1, 64, 112, 112]]   [1, 64, 112, 112]          0</span><br><span class="line">    MaxPool2D-1     [[1, 64, 112, 112]]    [1, 64, 56, 56]           0</span><br><span class="line">     Conv2D-3        [[1, 64, 56, 56]]     [1, 64, 56, 56]         4,096</span><br><span class="line">   BatchNorm2D-3     [[1, 64, 56, 56]]     [1, 64, 56, 56]          256</span><br><span class="line">      ReLU-2         [[1, 256, 56, 56]]    [1, 256, 56, 56]          0</span><br><span class="line">     Conv2D-4        [[1, 64, 56, 56]]     [1, 64, 56, 56]        36,864</span><br><span class="line">   BatchNorm2D-4     [[1, 64, 56, 56]]     [1, 64, 56, 56]          256</span><br><span class="line">     Conv2D-5        [[1, 64, 56, 56]]     [1, 256, 56, 56]       16,384</span><br><span class="line">   BatchNorm2D-5     [[1, 256, 56, 56]]    [1, 256, 56, 56]        1,024</span><br><span class="line">     Conv2D-2        [[1, 64, 56, 56]]     [1, 256, 56, 56]       16,384</span><br><span class="line">   BatchNorm2D-2     [[1, 256, 56, 56]]    [1, 256, 56, 56]        1,024</span><br><span class="line"> BottleneckBlock-1   [[1, 64, 56, 56]]     [1, 256, 56, 56]          0</span><br><span class="line">     Conv2D-6        [[1, 256, 56, 56]]    [1, 64, 56, 56]        16,384</span><br><span class="line">   BatchNorm2D-6     [[1, 64, 56, 56]]     [1, 64, 56, 56]          256</span><br><span class="line">      ReLU-3         [[1, 256, 56, 56]]    [1, 256, 56, 56]          0</span><br><span class="line">     Conv2D-7        [[1, 64, 56, 56]]     [1, 64, 56, 56]        36,864</span><br><span class="line">   BatchNorm2D-7     [[1, 64, 56, 56]]     [1, 64, 56, 56]          256</span><br><span class="line">     Conv2D-8        [[1, 64, 56, 56]]     [1, 256, 56, 56]       16,384</span><br><span class="line">   BatchNorm2D-8     [[1, 256, 56, 56]]    [1, 256, 56, 56]        1,024</span><br><span class="line"> BottleneckBlock-2   [[1, 256, 56, 56]]    [1, 256, 56, 56]          0</span><br><span class="line">     Conv2D-9        [[1, 256, 56, 56]]    [1, 64, 56, 56]        16,384</span><br><span class="line">   BatchNorm2D-9     [[1, 64, 56, 56]]     [1, 64, 56, 56]          256</span><br><span class="line">      ReLU-4         [[1, 256, 56, 56]]    [1, 256, 56, 56]          0</span><br><span class="line">     Conv2D-10       [[1, 64, 56, 56]]     [1, 64, 56, 56]        36,864</span><br><span class="line">  BatchNorm2D-10     [[1, 64, 56, 56]]     [1, 64, 56, 56]          256</span><br><span class="line">     Conv2D-11       [[1, 64, 56, 56]]     [1, 256, 56, 56]       16,384</span><br><span class="line">  BatchNorm2D-11     [[1, 256, 56, 56]]    [1, 256, 56, 56]        1,024</span><br><span class="line"> BottleneckBlock-3   [[1, 256, 56, 56]]    [1, 256, 56, 56]          0</span><br><span class="line">     Conv2D-13       [[1, 256, 56, 56]]    [1, 128, 56, 56]       32,768</span><br><span class="line">  BatchNorm2D-13     [[1, 128, 56, 56]]    [1, 128, 56, 56]         512</span><br><span class="line">      ReLU-5         [[1, 512, 28, 28]]    [1, 512, 28, 28]          0</span><br><span class="line">     Conv2D-14       [[1, 128, 56, 56]]    [1, 128, 28, 28]       147,456</span><br><span class="line">  BatchNorm2D-14     [[1, 128, 28, 28]]    [1, 128, 28, 28]         512</span><br><span class="line">     Conv2D-15       [[1, 128, 28, 28]]    [1, 512, 28, 28]       65,536</span><br><span class="line">  BatchNorm2D-15     [[1, 512, 28, 28]]    [1, 512, 28, 28]        2,048</span><br><span class="line">     Conv2D-12       [[1, 256, 56, 56]]    [1, 512, 28, 28]       131,072</span><br><span class="line">  BatchNorm2D-12     [[1, 512, 28, 28]]    [1, 512, 28, 28]        2,048</span><br><span class="line"> BottleneckBlock-4   [[1, 256, 56, 56]]    [1, 512, 28, 28]          0</span><br><span class="line">     Conv2D-16       [[1, 512, 28, 28]]    [1, 128, 28, 28]       65,536</span><br><span class="line">  BatchNorm2D-16     [[1, 128, 28, 28]]    [1, 128, 28, 28]         512</span><br><span class="line">      ReLU-6         [[1, 512, 28, 28]]    [1, 512, 28, 28]          0</span><br><span class="line">     Conv2D-17       [[1, 128, 28, 28]]    [1, 128, 28, 28]       147,456</span><br><span class="line">  BatchNorm2D-17     [[1, 128, 28, 28]]    [1, 128, 28, 28]         512</span><br><span class="line">     Conv2D-18       [[1, 128, 28, 28]]    [1, 512, 28, 28]       65,536</span><br><span class="line">  BatchNorm2D-18     [[1, 512, 28, 28]]    [1, 512, 28, 28]        2,048</span><br><span class="line"> BottleneckBlock-5   [[1, 512, 28, 28]]    [1, 512, 28, 28]          0</span><br><span class="line">     Conv2D-19       [[1, 512, 28, 28]]    [1, 128, 28, 28]       65,536</span><br><span class="line">  BatchNorm2D-19     [[1, 128, 28, 28]]    [1, 128, 28, 28]         512</span><br><span class="line">      ReLU-7         [[1, 512, 28, 28]]    [1, 512, 28, 28]          0</span><br><span class="line">     Conv2D-20       [[1, 128, 28, 28]]    [1, 128, 28, 28]       147,456</span><br><span class="line">  BatchNorm2D-20     [[1, 128, 28, 28]]    [1, 128, 28, 28]         512</span><br><span class="line">     Conv2D-21       [[1, 128, 28, 28]]    [1, 512, 28, 28]       65,536</span><br><span class="line">  BatchNorm2D-21     [[1, 512, 28, 28]]    [1, 512, 28, 28]        2,048</span><br><span class="line"> BottleneckBlock-6   [[1, 512, 28, 28]]    [1, 512, 28, 28]          0</span><br><span class="line">     Conv2D-22       [[1, 512, 28, 28]]    [1, 128, 28, 28]       65,536</span><br><span class="line">  BatchNorm2D-22     [[1, 128, 28, 28]]    [1, 128, 28, 28]         512</span><br><span class="line">      ReLU-8         [[1, 512, 28, 28]]    [1, 512, 28, 28]          0</span><br><span class="line">     Conv2D-23       [[1, 128, 28, 28]]    [1, 128, 28, 28]       147,456</span><br><span class="line">  BatchNorm2D-23     [[1, 128, 28, 28]]    [1, 128, 28, 28]         512</span><br><span class="line">     Conv2D-24       [[1, 128, 28, 28]]    [1, 512, 28, 28]       65,536</span><br><span class="line">  BatchNorm2D-24     [[1, 512, 28, 28]]    [1, 512, 28, 28]        2,048</span><br><span class="line"> BottleneckBlock-7   [[1, 512, 28, 28]]    [1, 512, 28, 28]          0</span><br><span class="line">     Conv2D-26       [[1, 512, 28, 28]]    [1, 256, 28, 28]       131,072</span><br><span class="line">  BatchNorm2D-26     [[1, 256, 28, 28]]    [1, 256, 28, 28]        1,024</span><br><span class="line">      ReLU-9        [[1, 1024, 14, 14]]   [1, 1024, 14, 14]          0</span><br><span class="line">     Conv2D-27       [[1, 256, 28, 28]]    [1, 256, 14, 14]       589,824</span><br><span class="line">  BatchNorm2D-27     [[1, 256, 14, 14]]    [1, 256, 14, 14]        1,024</span><br><span class="line">     Conv2D-28       [[1, 256, 14, 14]]   [1, 1024, 14, 14]       262,144</span><br><span class="line">  BatchNorm2D-28    [[1, 1024, 14, 14]]   [1, 1024, 14, 14]        4,096</span><br><span class="line">     Conv2D-25       [[1, 512, 28, 28]]   [1, 1024, 14, 14]       524,288</span><br><span class="line">  BatchNorm2D-25    [[1, 1024, 14, 14]]   [1, 1024, 14, 14]        4,096</span><br><span class="line"> BottleneckBlock-8   [[1, 512, 28, 28]]   [1, 1024, 14, 14]          0</span><br><span class="line">     Conv2D-29      [[1, 1024, 14, 14]]    [1, 256, 14, 14]       262,144</span><br><span class="line">  BatchNorm2D-29     [[1, 256, 14, 14]]    [1, 256, 14, 14]        1,024</span><br><span class="line">      ReLU-10       [[1, 1024, 14, 14]]   [1, 1024, 14, 14]          0</span><br><span class="line">     Conv2D-30       [[1, 256, 14, 14]]    [1, 256, 14, 14]       589,824</span><br><span class="line">  BatchNorm2D-30     [[1, 256, 14, 14]]    [1, 256, 14, 14]        1,024</span><br><span class="line">     Conv2D-31       [[1, 256, 14, 14]]   [1, 1024, 14, 14]       262,144</span><br><span class="line">  BatchNorm2D-31    [[1, 1024, 14, 14]]   [1, 1024, 14, 14]        4,096</span><br><span class="line"> BottleneckBlock-9  [[1, 1024, 14, 14]]   [1, 1024, 14, 14]          0</span><br><span class="line">     Conv2D-32      [[1, 1024, 14, 14]]    [1, 256, 14, 14]       262,144</span><br><span class="line">  BatchNorm2D-32     [[1, 256, 14, 14]]    [1, 256, 14, 14]        1,024</span><br><span class="line">      ReLU-11       [[1, 1024, 14, 14]]   [1, 1024, 14, 14]          0</span><br><span class="line">     Conv2D-33       [[1, 256, 14, 14]]    [1, 256, 14, 14]       589,824</span><br><span class="line">  BatchNorm2D-33     [[1, 256, 14, 14]]    [1, 256, 14, 14]        1,024</span><br><span class="line">     Conv2D-34       [[1, 256, 14, 14]]   [1, 1024, 14, 14]       262,144</span><br><span class="line">  BatchNorm2D-34    [[1, 1024, 14, 14]]   [1, 1024, 14, 14]        4,096</span><br><span class="line">BottleneckBlock-10  [[1, 1024, 14, 14]]   [1, 1024, 14, 14]          0</span><br><span class="line">     Conv2D-35      [[1, 1024, 14, 14]]    [1, 256, 14, 14]       262,144</span><br><span class="line">  BatchNorm2D-35     [[1, 256, 14, 14]]    [1, 256, 14, 14]        1,024</span><br><span class="line">      ReLU-12       [[1, 1024, 14, 14]]   [1, 1024, 14, 14]          0</span><br><span class="line">     Conv2D-36       [[1, 256, 14, 14]]    [1, 256, 14, 14]       589,824</span><br><span class="line">  BatchNorm2D-36     [[1, 256, 14, 14]]    [1, 256, 14, 14]        1,024</span><br><span class="line">     Conv2D-37       [[1, 256, 14, 14]]   [1, 1024, 14, 14]       262,144</span><br><span class="line">  BatchNorm2D-37    [[1, 1024, 14, 14]]   [1, 1024, 14, 14]        4,096</span><br><span class="line">BottleneckBlock-11  [[1, 1024, 14, 14]]   [1, 1024, 14, 14]          0</span><br><span class="line">     Conv2D-38      [[1, 1024, 14, 14]]    [1, 256, 14, 14]       262,144</span><br><span class="line">  BatchNorm2D-38     [[1, 256, 14, 14]]    [1, 256, 14, 14]        1,024</span><br><span class="line">      ReLU-13       [[1, 1024, 14, 14]]   [1, 1024, 14, 14]          0</span><br><span class="line">     Conv2D-39       [[1, 256, 14, 14]]    [1, 256, 14, 14]       589,824</span><br><span class="line">  BatchNorm2D-39     [[1, 256, 14, 14]]    [1, 256, 14, 14]        1,024</span><br><span class="line">     Conv2D-40       [[1, 256, 14, 14]]   [1, 1024, 14, 14]       262,144</span><br><span class="line">  BatchNorm2D-40    [[1, 1024, 14, 14]]   [1, 1024, 14, 14]        4,096</span><br><span class="line">BottleneckBlock-12  [[1, 1024, 14, 14]]   [1, 1024, 14, 14]          0</span><br><span class="line">     Conv2D-41      [[1, 1024, 14, 14]]    [1, 256, 14, 14]       262,144</span><br><span class="line">  BatchNorm2D-41     [[1, 256, 14, 14]]    [1, 256, 14, 14]        1,024</span><br><span class="line">      ReLU-14       [[1, 1024, 14, 14]]   [1, 1024, 14, 14]          0</span><br><span class="line">     Conv2D-42       [[1, 256, 14, 14]]    [1, 256, 14, 14]       589,824</span><br><span class="line">  BatchNorm2D-42     [[1, 256, 14, 14]]    [1, 256, 14, 14]        1,024</span><br><span class="line">     Conv2D-43       [[1, 256, 14, 14]]   [1, 1024, 14, 14]       262,144</span><br><span class="line">  BatchNorm2D-43    [[1, 1024, 14, 14]]   [1, 1024, 14, 14]        4,096</span><br><span class="line">BottleneckBlock-13  [[1, 1024, 14, 14]]   [1, 1024, 14, 14]          0</span><br><span class="line">     Conv2D-45      [[1, 1024, 14, 14]]    [1, 512, 14, 14]       524,288</span><br><span class="line">  BatchNorm2D-45     [[1, 512, 14, 14]]    [1, 512, 14, 14]        2,048</span><br><span class="line">      ReLU-15        [[1, 2048, 7, 7]]     [1, 2048, 7, 7]           0</span><br><span class="line">     Conv2D-46       [[1, 512, 14, 14]]     [1, 512, 7, 7]       2,359,296</span><br><span class="line">  BatchNorm2D-46      [[1, 512, 7, 7]]      [1, 512, 7, 7]         2,048</span><br><span class="line">     Conv2D-47        [[1, 512, 7, 7]]     [1, 2048, 7, 7]       1,048,576</span><br><span class="line">  BatchNorm2D-47     [[1, 2048, 7, 7]]     [1, 2048, 7, 7]         8,192</span><br><span class="line">     Conv2D-44      [[1, 1024, 14, 14]]    [1, 2048, 7, 7]       2,097,152</span><br><span class="line">  BatchNorm2D-44     [[1, 2048, 7, 7]]     [1, 2048, 7, 7]         8,192</span><br><span class="line">BottleneckBlock-14  [[1, 1024, 14, 14]]    [1, 2048, 7, 7]           0</span><br><span class="line">     Conv2D-48       [[1, 2048, 7, 7]]      [1, 512, 7, 7]       1,048,576</span><br><span class="line">  BatchNorm2D-48      [[1, 512, 7, 7]]      [1, 512, 7, 7]         2,048</span><br><span class="line">      ReLU-16        [[1, 2048, 7, 7]]     [1, 2048, 7, 7]           0</span><br><span class="line">     Conv2D-49        [[1, 512, 7, 7]]      [1, 512, 7, 7]       2,359,296</span><br><span class="line">  BatchNorm2D-49      [[1, 512, 7, 7]]      [1, 512, 7, 7]         2,048</span><br><span class="line">     Conv2D-50        [[1, 512, 7, 7]]     [1, 2048, 7, 7]       1,048,576</span><br><span class="line">  BatchNorm2D-50     [[1, 2048, 7, 7]]     [1, 2048, 7, 7]         8,192</span><br><span class="line">BottleneckBlock-15   [[1, 2048, 7, 7]]     [1, 2048, 7, 7]           0</span><br><span class="line">     Conv2D-51       [[1, 2048, 7, 7]]      [1, 512, 7, 7]       1,048,576</span><br><span class="line">  BatchNorm2D-51      [[1, 512, 7, 7]]      [1, 512, 7, 7]         2,048</span><br><span class="line">      ReLU-17        [[1, 2048, 7, 7]]     [1, 2048, 7, 7]           0</span><br><span class="line">     Conv2D-52        [[1, 512, 7, 7]]      [1, 512, 7, 7]       2,359,296</span><br><span class="line">  BatchNorm2D-52      [[1, 512, 7, 7]]      [1, 512, 7, 7]         2,048</span><br><span class="line">     Conv2D-53        [[1, 512, 7, 7]]     [1, 2048, 7, 7]       1,048,576</span><br><span class="line">  BatchNorm2D-53     [[1, 2048, 7, 7]]     [1, 2048, 7, 7]         8,192</span><br><span class="line">BottleneckBlock-16   [[1, 2048, 7, 7]]     [1, 2048, 7, 7]           0</span><br><span class="line">AdaptiveAvgPool2D-1  [[1, 2048, 7, 7]]     [1, 2048, 1, 1]           0</span><br><span class="line">     Linear-1           [[1, 2048]]            [1, 12]            24,588</span><br><span class="line">===============================================================================</span><br><span class="line">Total params: 23,585,740</span><br><span class="line">Trainable params: 23,479,500</span><br><span class="line">Non-trainable params: 106,240</span><br><span class="line">-------------------------------------------------------------------------------</span><br>
…
 but the expected shape is [12].</span><br><span class="line">  warnings.warn((&quot;Skip loading for &#123;&#125;. &quot;.format(key) + str(err)))</span><br><span class="line"></span><br><span class="line"></span><br><span class="line">-------------------------------------------------------------------------------</span><br><span class="line">   Layer (type)         Input Shape          Output Shape         Param #</span><br><span class="line">===============================================================================</span><br><span class="line">    Conv2D-160       [[1, 3, 224, 224]]   [1, 32, 112, 112]         864</span><br><span class="line">  BatchNorm2D-107   [[1, 32, 112, 112]]   [1, 32, 112, 112]         128</span><br><span class="line">      ReLU6-1       [[1, 32, 112, 112]]   [1, 32, 112, 112]          0</span><br><span class="line">    Conv2D-161      [[1, 32, 112, 112]]   [1, 32, 112, 112]         288</span><br><span class="line">  BatchNorm2D-108   [[1, 32, 112, 112]]   [1, 32, 112, 112]         128</span><br><span class="line">      ReLU6-2       [[1, 32, 112, 112]]   [1, 32, 112, 112]          0</span><br><span class="line">    Conv2D-162      [[1, 32, 112, 112]]   [1, 16, 112, 112]         512</span><br><span class="line">  BatchNorm2D-109   [[1, 16, 112, 112]]   [1, 16, 112, 112]         64</span><br><span class="line">InvertedResidual-1  [[1, 32, 112, 112]]   [1, 16, 112, 112]          0</span><br><span class="line">    Conv2D-163      [[1, 16, 112, 112]]   [1, 96, 112, 112]        1,536</span><br><span class="line">  BatchNorm2D-110   [[1, 96, 112, 112]]   [1, 96, 112, 112]         384</span><br><span class="line">      ReLU6-3       [[1, 96, 112, 112]]   [1, 96, 112, 112]          0</span><br><span class="line">    Conv2D-164      [[1, 96, 112, 112]]    [1, 96, 56, 56]          864</span><br><span class="line">  BatchNorm2D-111    [[1, 96, 56, 56]]     [1, 96, 56, 56]          384</span><br><span class="line">      ReLU6-4        [[1, 96, 56, 56]]     [1, 96, 56, 56]           0</span><br><span class="line">    Conv2D-165       [[1, 96, 56, 56]]     [1, 24, 56, 56]         2,304</span><br><span class="line">  BatchNorm2D-112    [[1, 24, 56, 56]]     [1, 24, 56, 56]          96</span><br><span class="line">InvertedResidual-2  [[1, 16, 112, 112]]    [1, 24, 56, 56]           0</span><br><span class="line">    Conv2D-166       [[1, 24, 56, 56]]     [1, 144, 56, 56]        3,456</span><br><span class="line">  BatchNorm2D-113    [[1, 144, 56, 56]]    [1, 144, 56, 56]         576</span><br><span class="line">      ReLU6-5        [[1, 144, 56, 56]]    [1, 144, 56, 56]          0</span><br><span class="line">    Conv2D-167       [[1, 144, 56, 56]]    [1, 144, 56, 56]        1,296</span><br><span class="line">  BatchNorm2D-114    [[1, 144, 56, 56]]    [1, 144, 56, 56]         576</span><br><span class="line">      ReLU6-6        [[1, 144, 56, 56]]    [1, 144, 56, 56]          0</span><br><span class="line">    Conv2D-168       [[1, 144, 56, 56]]    [1, 24, 56, 56]         3,456</span><br><span class="line">  BatchNorm2D-115    [[1, 24, 56, 56]]     [1, 24, 56, 56]          96</span><br><span class="line">InvertedResidual-3   [[1, 24, 56, 56]]     [1, 24, 56, 56]           0</span><br><span class="line">    Conv2D-169       [[1, 24, 56, 56]]     [1, 144, 56, 56]        3,456</span><br><span class="line">  BatchNorm2D-116    [[1, 144, 56, 56]]    [1, 144, 56, 56]         576</span><br><span class="line">      ReLU6-7        [[1, 144, 56, 56]]    [1, 144, 56, 56]          0</span><br><span class="line">    Conv2D-170       [[1, 144, 56, 56]]    [1, 144, 28, 28]        1,296</span><br><span class="line">  BatchNorm2D-117    [[1, 144, 28, 28]]    [1, 144, 28, 28]         576</span><br><span class="line">      ReLU6-8        [[1, 144, 28, 28]]    [1, 144, 28, 28]          0</span><br><span class="line">    Conv2D-171       [[1, 144, 28, 28]]    [1, 32, 28, 28]         4,608</span><br><span class="line">  BatchNorm2D-118    [[1, 32, 28, 28]]     [1, 32, 28, 28]          128</span><br><span class="line">InvertedResidual-4   [[1, 24, 56, 56]]     [1, 32, 28, 28]           0</span><br><span class="line">    Conv2D-172       [[1, 32, 28, 28]]     [1, 192, 28, 28]        6,144</span><br><span class="line">  BatchNorm2D-119    [[1, 192, 28, 28]]    [1, 192, 28, 28]         768</span><br><span class="line">      ReLU6-9        [[1, 192, 28, 28]]    [1, 192, 28, 28]          0</span><br><span class="line">    Conv2D-173       [[1, 192, 28, 28]]    [1, 192, 28, 28]        1,728</span><br><span class="line">  BatchNorm2D-120    [[1, 192, 28, 28]]    [1, 192, 28, 28]         768</span><br><span class="line">     ReLU6-10        [[1, 192, 28, 28]]    [1, 192, 28, 28]          0</span><br><span class="line">    Conv2D-174       [[1, 192, 28, 28]]    [1, 32, 28, 28]         6,144</span><br><span class="line">  BatchNorm2D-121    [[1, 32, 28, 28]]     [1, 32, 28, 28]          128</span><br><span class="line">InvertedResidual-5   [[1, 32, 28, 28]]     [1, 32, 28, 28]           0</span><br><span class="line">    Conv2D-175       [[1, 32, 28, 28]]     [1, 192, 28, 28]        6,144</span><br><span class="line">  BatchNorm2D-122    [[1, 192, 28, 28]]    [1, 192, 28, 28]         768</span><br><span class="line">     ReLU6-11        [[1, 192, 28, 28]]    [1, 192, 28, 28]          0</span><br><span class="line">    Conv2D-176       [[1, 192, 28, 28]]    [1, 192, 28, 28]        1,728</span><br><span class="line">  BatchNorm2D-123    [[1, 192, 28, 28]]    [1, 192, 28, 28]         768</span><br><span class="line">     ReLU6-12        [[1, 192, 28, 28]]    [1, 192, 28, 28]          0</span><br><span class="line">    Conv2D-177       [[1, 192, 28, 28]]    [1, 32, 28, 28]         6,144</span><br><span class="line">  BatchNorm2D-124    [[1, 32, 28, 28]]     [1, 32, 28, 28]          128</span><br><span class="line">InvertedResidual-6   [[1, 32, 28, 28]]     [1, 32, 28, 28]           0</span><br><span class="line">    Conv2D-178       [[1, 32, 28, 28]]     [1, 192, 28, 28]        6,144</span><br><span class="line">  BatchNorm2D-125    [[1, 192, 28, 28]]    [1, 192, 28, 28]         768</span><br><span class="line">     ReLU6-13        [[1, 192, 28, 28]]    [1, 192, 28, 28]          0</span><br><span class="line">    Conv2D-179       [[1, 192, 28, 28]]    [1, 192, 14, 14]        1,728</span><br><span class="line">  BatchNorm2D-126    [[1, 192, 14, 14]]    [1, 192, 14, 14]         768</span><br><span class="line">     ReLU6-14        [[1, 192, 14, 14]]    [1, 192, 14, 14]          0</span><br><span class="line">    Conv2D-180       [[1, 192, 14, 14]]    [1, 64, 14, 14]        12,288</span><br><span class="line">  BatchNorm2D-127    [[1, 64, 14, 14]]     [1, 64, 14, 14]          256</span><br><span class="line">InvertedResidual-7   [[1, 32, 28, 28]]     [1, 64, 14, 14]           0</span><br><span class="line">    Conv2D-181       [[1, 64, 14, 14]]     [1, 384, 14, 14]       24,576</span><br><span class="line">  BatchNorm2D-128    [[1, 384, 14, 14]]    [1, 384, 14, 14]        1,536</span><br><span class="line">     ReLU6-15        [[1, 384, 14, 14]]    [1, 384, 14, 14]          0</span><br><span class="line">    Conv2D-182       [[1, 384, 14, 14]]    [1, 384, 14, 14]        3,456</span><br><span class="line">  BatchNorm2D-129    [[1, 384, 14, 14]]    [1, 384, 14, 14]        1,536</span><br><span class="line">     ReLU6-16        [[1, 384, 14, 14]]    [1, 384, 14, 14]          0</span><br><span class="line">    Conv2D-183       [[1, 384, 14, 14]]    [1, 64, 14, 14]        24,576</span><br><span class="line">  BatchNorm2D-130    [[1, 64, 14, 14]]     [1, 64, 14, 14]          256</span><br><span class="line">InvertedResidual-8   [[1, 64, 14, 14]]     [1, 64, 14, 14]           0</span><br><span class="line">    Conv2D-184       [[1, 64, 14, 14]]     [1, 384, 14, 14]       24,576</span><br><span class="line">  BatchNorm2D-131    [[1, 384, 14, 14]]    [1, 384, 14, 14]        1,536</span><br><span class="line">     ReLU6-17        [[1, 384, 14, 14]]    [1, 384, 14, 14]          0</span><br><span class="line">    Conv2D-185       [[1, 384, 14, 14]]    [1, 384, 14, 14]        3,456</span><br><span class="line">  BatchNorm2D-132    [[1, 384, 14, 14]]    [1, 384, 14, 14]        1,536</span><br><span class="line">     ReLU6-18        [[1, 384, 14, 14]]    [1, 384, 14, 14]          0</span><br><span class="line">    Conv2D-186       [[1, 384, 14, 14]]    [1, 64, 14, 14]        24,576</span><br><span class="line">  BatchNorm2D-133    [[1, 64, 14, 14]]     [1, 64, 14, 14]          256</span><br><span class="line">InvertedResidual-9   [[1, 64, 14, 14]]     [1, 64, 14, 14]           0</span><br><span class="line">    Conv2D-187       [[1, 64, 14, 14]]     [1, 384, 14, 14]       24,576</span><br><span class="line">  BatchNorm2D-134    [[1, 384, 14, 14]]    [1, 384, 14, 14]        1,536</span><br><span class="line">     ReLU6-19        [[1, 384, 14, 14]]    [1, 384, 14, 14]          0</span><br><span class="line">    Conv2D-188       [[1, 384, 14, 14]]    [1, 384, 14, 14]        3,456</span><br><span class="line">  BatchNorm2D-135    [[1, 384, 14, 14]]    [1, 384, 14, 14]        1,536</span><br><span class="line">     ReLU6-20        [[1, 384, 14, 14]]    [1, 384, 14, 14]          0</span><br><span class="line">    Conv2D-189       [[1, 384, 14, 14]]    [1, 64, 14, 14]        24,576</span><br><span class="line">  BatchNorm2D-136    [[1, 64, 14, 14]]     [1, 64, 14, 14]          256</span><br><span class="line">InvertedResidual-10  [[1, 64, 14, 14]]     [1, 64, 14, 14]           0</span><br><span class="line">    Conv2D-190       [[1, 64, 14, 14]]     [1, 384, 14, 14]       24,576</span><br><span class="line">  BatchNorm2D-137    [[1, 384, 14, 14]]    [1, 384, 14, 14]        1,536</span><br><span class="line">     ReLU6-21        [[1, 384, 14, 14]]    [1, 384, 14, 14]          0</span><br><span class="line">    Conv2D-191       [[1, 384, 14, 14]]    [1, 384, 14, 14]        3,456</span><br><span class="line">  BatchNorm2D-138    [[1, 384, 14, 14]]    [1, 384, 14, 14]        1,536</span><br><span class="line">     ReLU6-22        [[1, 384, 14, 14]]    [1, 384, 14, 14]          0</span><br><span class="line">    Conv2D-192       [[1, 384, 14, 14]]    [1, 96, 14, 14]        36,864</span><br><span class="line">  BatchNorm2D-139    [[1, 96, 14, 14]]     [1, 96, 14, 14]          384</span><br><span class="line">InvertedResidual-11  [[1, 64, 14, 14]]     [1, 96, 14, 14]           0</span><br><span class="line">    Conv2D-193       [[1, 96, 14, 14]]     [1, 576, 14, 14]       55,296</span><br><span class="line">  BatchNorm2D-140    [[1, 576, 14, 14]]    [1, 576, 14, 14]        2,304</span><br><span class="line">     ReLU6-23        [[1, 576, 14, 14]]    [1, 576, 14, 14]          0</span><br><span class="line">    Conv2D-194       [[1, 576, 14, 14]]    [1, 576, 14, 14]        5,184</span><br><span class="line">  BatchNorm2D-141    [[1, 576, 14, 14]]    [1, 576, 14, 14]        2,304</span><br><span class="line">     ReLU6-24        [[1, 576, 14, 14]]    [1, 576, 14, 14]          0</span><br><span class="line">    Conv2D-195       [[1, 576, 14, 14]]    [1, 96, 14, 14]        55,296</span><br><span class="line">  BatchNorm2D-142    [[1, 96, 14, 14]]     [1, 96, 14, 14]          384</span><br><span class="line">InvertedResidual-12  [[1, 96, 14, 14]]     [1, 96, 14, 14]           0</span><br><span class="line">    Conv2D-196       [[1, 96, 14, 14]]     [1, 576, 14, 14]       55,296</span><br><span class="line">  BatchNorm2D-143    [[1, 576, 14, 14]]    [1, 576, 14, 14]        2,304</span><br><span class="line">     ReLU6-25        [[1, 576, 14, 14]]    [1, 576, 14, 14]          0</span><br><span class="line">    Conv2D-197       [[1, 576, 14, 14]]    [1, 576, 14, 14]        5,184</span><br><span class="line">  BatchNorm2D-144    [[1, 576, 14, 14]]    [1, 576, 14, 14]        2,304</span><br><span class="line">     ReLU6-26        [[1, 576, 14, 14]]    [1, 576, 14, 14]          0</span><br><span class="line">    Conv2D-198       [[1, 576, 14, 14]]    [1, 96, 14, 14]        55,296</span><br><span class="line">  BatchNorm2D-145    [[1, 96, 14, 14]]     [1, 96, 14, 14]          384</span><br><span class="line">InvertedResidual-13  [[1, 96, 14, 14]]     [1, 96, 14, 14]           0</span><br><span class="line">    Conv2D-199       [[1, 96, 14, 14]]     [1, 576, 14, 14]       55,296</span><br><span class="line">  BatchNorm2D-146    [[1, 576, 14, 14]]    [1, 576, 14, 14]        2,304</span><br><span class="line">     ReLU6-27        [[1, 576, 14, 14]]    [1, 576, 14, 14]          0</span><br><span class="line">    Conv2D-200       [[1, 576, 14, 14]]     [1, 576, 7, 7]         5,184</span><br><span class="line">  BatchNorm2D-147     [[1, 576, 7, 7]]      [1, 576, 7, 7]         2,304</span><br><span class="line">     ReLU6-28         [[1, 576, 7, 7]]      [1, 576, 7, 7]           0</span><br><span class="line">    Conv2D-201        [[1, 576, 7, 7]]      [1, 160, 7, 7]        92,160</span><br><span class="line">  BatchNorm2D-148     [[1, 160, 7, 7]]      [1, 160, 7, 7]          640</span><br><span class="line">InvertedResidual-14  [[1, 96, 14, 14]]      [1, 160, 7, 7]           0</span><br><span class="line">    Conv2D-202        [[1, 160, 7, 7]]      [1, 960, 7, 7]        153,600</span><br><span class="line">  BatchNorm2D-149     [[1, 960, 7, 7]]      [1, 960, 7, 7]         3,840</span><br><span class="line">     ReLU6-29         [[1, 960, 7, 7]]      [1, 960, 7, 7]           0</span><br><span class="line">    Conv2D-203        [[1, 960, 7, 7]]      [1, 960, 7, 7]         8,640</span><br><span class="line">  BatchNorm2D-150     [[1, 960, 7, 7]]      [1, 960, 7, 7]         3,840</span><br><span class="line">     ReLU6-30         [[1, 960, 7, 7]]      [1, 960, 7, 7]           0</span><br><span class="line">    Conv2D-204        [[1, 960, 7, 7]]      [1, 160, 7, 7]        153,600</span><br><span class="line">  BatchNorm2D-151     [[1, 160, 7, 7]]      [1, 160, 7, 7]          640</span><br><span class="line">InvertedResidual-15   [[1, 160, 7, 7]]      [1, 160, 7, 7]           0</span><br><span class="line">    Conv2D-205        [[1, 160, 7, 7]]      [1, 960, 7, 7]        153,600</span><br><span class="line">  BatchNorm2D-152     [[1, 960, 7, 7]]      [1, 960, 7, 7]         3,840</span><br><span class="line">     ReLU6-31         [[1, 960, 7, 7]]      [1, 960, 7, 7]           0</span><br><span class="line">    Conv2D-206        [[1, 960, 7, 7]]      [1, 960, 7, 7]         8,640</span><br><span class="line">  BatchNorm2D-153     [[1, 960, 7, 7]]      [1, 960, 7, 7]         3,840</span><br><span class="line">     ReLU6-32         [[1, 960, 7, 7]]      [1, 960, 7, 7]           0</span><br><span class="line">    Conv2D-207        [[1, 960, 7, 7]]      [1, 160, 7, 7]        153,600</span><br><span class="line">  BatchNorm2D-154     [[1, 160, 7, 7]]      [1, 160, 7, 7]          640</span><br><span class="line">InvertedResidual-16   [[1, 160, 7, 7]]      [1, 160, 7, 7]           0</span><br><span class="line">    Conv2D-208        [[1, 160, 7, 7]]      [1, 960, 7, 7]        153,600</span><br><span class="line">  BatchNorm2D-155     [[1, 960, 7, 7]]      [1, 960, 7, 7]         3,840</span><br><span class="line">     ReLU6-33         [[1, 960, 7, 7]]      [1, 960, 7, 7]           0</span><br><span class="line">    Conv2D-209        [[1, 960, 7, 7]]      [1, 960, 7, 7]         8,640</span><br><span class="line">  BatchNorm2D-156     [[1, 960, 7, 7]]      [1, 960, 7, 7]         3,840</span><br><span class="line">     ReLU6-34         [[1, 960, 7, 7]]      [1, 960, 7, 7]           0</span><br><span class="line">    Conv2D-210        [[1, 960, 7, 7]]      [1, 320, 7, 7]        307,200</span><br><span class="line">  BatchNorm2D-157     [[1, 320, 7, 7]]      [1, 320, 7, 7]         1,280</span><br><span class="line">InvertedResidual-17   [[1, 160, 7, 7]]      [1, 320, 7, 7]           0</span><br><span class="line">    Conv2D-211        [[1, 320, 7, 7]]     [1, 1280, 7, 7]        409,600</span><br><span class="line">  BatchNorm2D-158    [[1, 1280, 7, 7]]     [1, 1280, 7, 7]         5,120</span><br><span class="line">     ReLU6-35        [[1, 1280, 7, 7]]     [1, 1280, 7, 7]           0</span><br><span class="line">AdaptiveAvgPool2D-3  [[1, 1280, 7, 7]]     [1, 1280, 1, 1]           0</span><br><span class="line">     Dropout-1          [[1, 1280]]           [1, 1280]              0</span><br><span class="line">     Linear-4           [[1, 1280]]            [1, 12]            15,372</span><br><span class="line">===============================================================================</span><br><span class="line">Total params: 2,273,356</span><br><span class="line">Trainable params: 2,205,132</span><br><span class="line">Non-trainable params: 68,224</span><br><span class="line">-------------------------------------------------------------------------------</span><br><sp
…
er">1</span>, <span class="number">28</span>, <span class="number">28</span>))  <span class="comment"># n c h w</span></span><br></pre></td></tr></table></figure>
<figure class="highlight plaintext"><table><tr><td class="code"><pre><span class="line">---------------------------------------------------------------------------</span><br><span class="line"> Layer (type)       Input Shape          Output Shape         Param #</span><br><span class="line">===========================================================================</span><br><span class="line">   Conv2D-1       [[8, 1, 28, 28]]      [8, 6, 28, 28]          60</span><br><span class="line">    ReLU-1        [[8, 6, 28, 28]]      [8, 6, 28, 28]           0</span><br><span class="line">  MaxPool2D-1     [[8, 6, 28, 28]]      [8, 6, 14, 14]           0</span><br><span class="line">   Conv2D-2       [[8, 6, 14, 14]]     [8, 16, 10, 10]         2,416</span><br><span class="line">    ReLU-2       [[8, 16, 10, 10]]     [8, 16, 10, 10]           0</span><br><span class="line">  MaxPool2D-2    [[8, 16, 10, 10]]      [8, 16, 5, 5]            0</span><br><span class="line">   Conv2D-3       [[8, 16, 5, 5]]       [8, 120, 1, 1]        48,120</span><br><span class="line">    ReLU-3        [[8, 120, 1, 1]]      [8, 120, 1, 1]           0</span><br><span class="line">   Flatten-1      [[8, 120, 1, 1]]         [8, 120]              0</span><br><span class="line">   Linear-1          [[8, 120]]            [8, 84]            10,164</span><br><span class="line">    ReLU-4           [[8, 84]]             [8, 84]               0</span><br><span class="line">   Linear-2          [[8, 84]]             [8, 10]              850</span><br><span class="line">===========================================================================</span><br><span class="line">Total params: 61,610</span><br><span class="line">Trainable params: 61,610</span><br><span class="line">Non-trainable params: 0</span><br><span class="line">---------------------------------------------------------------------------</span><br><span class="line">Inp
…
<figure class="highlight plaintext"><table><tr><td class="code"><pre><span class="line">PhysicalDevice(name=&#x27;/physical_device:GPU:0&#x27;, device_type=&#x27;GPU&#x27;)</span><br><span class="line">Model: &quot;model_2&quot;</span><br><span class="line">_________________________________________________________________</span><br><span class="line">Layer (type)                 Output Shape              Param #</span><br><span class="line">=================================================================</span><br><span class="line">input_5 (InputLayer)         [(None, 224, 224, 3)]     0</span><br><span class="line">_________________________________________________________________</span><br><span class="line">Conv (ConvBNReLU)            (None, 112, 112, 24)      744</span><br><span class="line">_________________________________________________________________</span><br><span class="line">inverted_residual_block_52 ( (None, 112, 112, 16)      760</span><br><span class="line">_________________________________________________________________</span><br><span class="line">inverted_residual_block_53 ( (None, 56, 56, 24)        5568</span><br><span class="line">_________________________________________________________________</span><br><span class="line">inverted_residual_block_54 ( (None, 56, 56, 24)        9456</span><br><span class="line">_________________________________________________________________</span><br><span class="line">inverted_residual_block_55 ( (None, 28, 28, 24)        9456</span><br><span class="line">_________________________________________________________________</span><br><span class="line">inverted_residual_block_56 ( (None, 28, 28, 24)        9456</span><br><span class="line">_________________________________________________________________</span><br><span class="line">inverted_residual_block_57 ( (None, 28, 28, 24)        9456</span><br><span class="line">_________________________________________________________________</span><br><span class="line">inverted_residual_block_58 ( (None, 14, 14, 48)        13008</span><br><span class="line">_________________________________________________________________</span><br><span class="line">inverted_residual_block_59 ( (None, 14, 14, 48)        32736</span><br><span class="line">_________________________________________________________________</span><br><span class="line">inverted_residual_block_60 ( (None, 14, 14, 48)        32736</span><br><span class="line">_________________________________________________________________</span><br><span class="line">inverted_residual_block_61 ( (None, 14, 14, 48)        32736</span><br><span class="line">_________________________________________________________________</span><br><span class="line">inverted_residual_block_62 ( (None, 14, 14, 72)        39744</span><br><span class="line">_________________________________________________________________</span><br><span class="line">inverted_residual_block_63 ( (None, 14, 14, 72)        69840</span><br><span class="line">_________________________________________________________________</span><br><span class="line">inverted_residual_block_64 ( (None, 14, 14, 72)        69840</span><br><span class="line">_________________________________________________________________</span><br><span class="line">inverted_residual_block_65 ( (None, 7, 7, 120)         90768</span><br><span class="line">_________________________________________________________________</span><br><span class="line">inverted_residual_block_66 ( (None, 7, 7, 120)         185520</span><br><span class="line">_________________________________________________________________</span><br><span class="line">inverted_residual_block_67 ( (None, 7, 7, 120)         185520</span><br><span class="line">_________________________________________________________________</span><br><span class="line">inverted_residual_block_68 ( (None, 7, 7, 240)         272400</span><br><span class="line">_________________________________________________________________</span><br><span class="line">Conv_1 (ConvBNReLU)          (None, 7, 7, 960)         234240</span><br><span class="line">_________________________________________________________________</span><br><span class="line">global_average_pooling2d_3 ( (None, 960)               0</span><br><span class="line">_________________________________________________________________</span><br><span class="line">dropout_3 (Dropout)          (None, 960)               0</span><br><span class="line">_________________________________________________________________</span><br><span class="line">Logits (Dense)               (None, 1000)              961000</span><br><span class="line">=================================================================</span><br><span class="line">Total params: 2,264,984</span><br><span class="line">Trainable params: 2,238,984</span><br><span class="line">Non-trainable params: 26,000</span><br><span class="line">_________________________________________________________________</span><br><span class="line">input shape:</span><br><span class="line"> (4, 224, 224, 3)</span><br><span class="line">output shape:</span><br><span class="line"> (4, 1000)</span><br></pre></td></tr></table></figure>
…
<figure class="highlight python"><table><tr><td class="code"><pre><span class="line">model = paddle.Model(SimpleNet(key_pts=<span class="number">68</span>))</span><br><span class="line">model.summary((-<span class="number">1</span>, <span class="number">3</span>, <span class="number">224</span>, <span class="number">224</span>))</span><br></pre></td></tr></table></figure>
<figure class="highlight plaintext"><table><tr><td class="code"><pre><span class="line">-------------------------------------------------------------------------------</span><br><span class="line">   Layer (type)         Input Shape          Output Shape         Param #</span><br><span class="line">===============================================================================</span><br><span class="line">    Conv2D-107       [[1, 3, 224, 224]]   [1, 64, 112, 112]        9,408</span><br><span class="line">  BatchNorm2D-107   [[1, 64, 112, 112]]   [1, 64, 112, 112]         256</span><br><span class="line">      ReLU-37       [[1, 64, 112, 112]]   [1, 64, 112, 112]          0</span><br><span class="line">    MaxPool2D-3     [[1, 64, 112, 112]]    [1, 64, 56, 56]           0</span><br><span class="line">    Conv2D-109       [[1, 64, 56, 56]]     [1, 64, 56, 56]         4,096</span><br><span class="line">  BatchNorm2D-109    [[1, 64, 56, 56]]     [1, 64, 56, 56]          256</span><br><span class="line">      ReLU-38        [[1, 256, 56, 56]]    [1, 256, 56, 56]          0</span><br><span class="line">    Conv2D-110       [[1, 64, 56, 56]]     [1, 64, 56, 56]        36,864</span><br><span class="line">  BatchNorm2D-110    [[1, 64, 56, 56]]     [1, 64, 56, 56]          256</span><br><span class="line">    Conv2D-111       [[1, 64, 56, 56]]     [1, 256, 56, 56]       16,384</span><br><span class="line">  BatchNorm2D-111    [[1, 256, 56, 56]]    [1, 256, 56, 56]        1,024</span><br><span class="line">    Conv2D-108       [[1, 64, 56, 56]]     [1, 256, 56, 56]       16,384</span><br><span class="line">  BatchNorm2D-108    [[1, 256, 56, 56]]    [1, 256, 56, 56]        1,024</span><br><span class="line">BottleneckBlock-33   [[1, 64, 56, 56]]     [1, 256, 56, 56]          0</span><br><span class="line">    Conv2D-112       [[1, 256, 56, 56]]    [1, 64, 56, 56]        16,384</span><br><span class="line">  BatchNorm2D-112    [[1, 64, 56, 56]]     [1, 64, 56, 56]          256</span><br><span class="line">      ReLU-39        [[1, 256, 56, 56]]    [1, 256, 56, 56]          0</span><br><span class="line">    Conv2D-113       [[1, 64, 56, 56]]     [1, 64, 56, 56]        36,864</span><br><span class="line">  BatchNorm2D-113    [[1, 64, 56, 56]]     [1, 64, 56, 56]          256</span><br><span class="line">    Conv2D-114       [[1, 64, 56, 56]]     [1, 256, 56, 56]       16,384</span><br><span class="line">  BatchNorm2D-114    [[1, 256, 56, 56]]    [1, 256, 56, 56]        1,024</span><br><span class="line">BottleneckBlock-34   [[1, 256, 56, 56]]    [1, 256, 56, 56]          0</span><br><span class="line">    Conv2D-115       [[1, 256, 56, 56]]    [1, 64, 56, 56]        16,384</span><br><span class="line">  BatchNorm2D-115    [[1, 64, 56, 56]]     [1, 64, 56, 56]          256</span><br><span class="line">      ReLU-40        [[1, 256, 56, 56]]    [1, 256, 56, 56]          0</span><br><span class="line">    Conv2D-116       [[1, 64, 56, 56]]     [1, 64, 56, 56]        36,864</span><br><span class="line">  BatchNorm2D-116    [[1, 64, 56, 56]]     [1, 64, 56, 56]          256</span><br><span class="line">    Conv2D-117       [[1, 64, 56, 56]]     [1, 256, 56, 56]       16,384</span><br><span class="line">  BatchNorm2D-117    [[1, 256, 56, 56]]    [1, 256, 56, 56]        1,024</span><br><span class="line">BottleneckBlock-35   [[1, 256, 56, 56]]    [1, 256, 56, 56]          0</span><br><span class="line">    Conv2D-119       [[1, 256, 56, 56]]    [1, 128, 56, 56]       32,768</span><br><span class="line">  BatchNorm2D-119    [[1, 128, 56, 56]]    [1, 128, 56, 56]         512</span><br><span class="line">      ReLU-41        [[1, 512, 28, 28]]    [1, 512, 28, 28]          0</span><br><span class="line">    Conv2D-120       [[1, 128, 56, 56]]    [1, 128, 28, 28]       147,456</span><br><span class="line">  BatchNorm2D-120    [[1, 128, 28, 28]]    [1, 128, 28, 28]         512</span><br><span class="line">    Conv2D-121       [[1, 128, 28, 28]]    [1, 512, 28, 28]       65,536</span><br><span class="line">  BatchNorm2D-121    [[1, 512, 28, 28]]    [1, 512, 28, 28]        2,048</span><br><span class="line">    Conv2D-118       [[1, 256, 56, 56]]    [1, 512, 28, 28]       131,072</span><br><span class="line">  BatchNorm2D-118    [[1, 512, 28, 28]]    [1, 512, 28, 28]        2,048</span><br><span class="line">BottleneckBlock-36   [[1, 256, 56, 56]]    [1, 512, 28, 28]          0</span><br><span class="line">    Conv2D-122       [[1, 512, 28, 28]]    [1, 128, 28, 28]       65,536</span><br><span class="line">  BatchNorm2D-122    [[1, 128, 28, 28]]    [1, 128, 28, 28]         512</span><br><span class="line">      ReLU-42        [[1, 512, 28, 28]]    [1, 512, 28, 28]          0</span><br><span class="line">    Conv2D-123       [[1, 128, 28, 28]]    [1, 128, 28, 28]       147,456</span><br><span class="line">  BatchNorm2D-123    [[1, 128, 28, 28]]    [1, 128, 28, 28]         512</span><br><span class="line">    Conv2D-124       [[1, 128, 28, 28]]    [1, 512, 28, 28]       65,536</span><br><span class="line">  BatchNorm2D-124    [[1, 512, 28, 28]]    [1, 512, 28, 28]        2,048</span><br><span class="line">BottleneckBlock-37   [[1, 512, 28, 28]]    [1, 512, 28, 28]          0</span><br><span class="line">    Conv2D-125       [[1, 512, 28, 28]]    [1, 128, 28, 28]       65,536</span><br><span class="line">  BatchNorm2D-125    [[1, 128, 28, 28]]    [1, 128, 28, 28]         512</span><br><span class="line">      ReLU-43        [[1, 512, 28, 28]]    [1, 512, 28, 28]          0</span><br><span class="line">    Conv2D-126       [[1, 128, 28, 28]]    [1, 128, 28, 28]       147,456</span><br><span class="line">  BatchNorm2D-126    [[1, 128, 28, 28]]    [1, 128, 28, 28]         512</span><br><span class="line">    Conv2D-127       [[1, 128, 28, 28]]    [1, 512, 28, 28]       65,536</span><br><span class="line">  BatchNorm2D-127    [[1, 512, 28, 28]]    [1, 512, 28, 28]        2,048</span><br><span class="line">BottleneckBlock-38   [[1, 512, 28, 28]]    [1, 512, 28, 28]          0</span><br><span class="line">    Conv2D-128       [[1, 512, 28, 28]]    [1, 128, 28, 28]       65,536</span><br><span class="line">  BatchNorm2D-128    [[1, 128, 28, 28]]    [1, 128, 28, 28]         512</span><br><span class="line">      ReLU-44        [[1, 512, 28, 28]]    [1, 512, 28, 28]          0</span><br><span class="line">    Conv2D-129       [[1, 128, 28, 28]]    [1, 128, 28, 28]       147,456</span><br><span class="line">  BatchNorm2D-129    [[1, 128, 28, 28]]    [1, 128, 28, 28]         512</span><br><span class="line">    Conv2D-130       [[1, 128, 28, 28]]    [1, 512, 28, 28]       65,536</span><br><span class="line">  BatchNorm2D-130    [[1, 512, 28, 28]]    [1, 512, 28, 28]        2,048</span><br><span class="line">BottleneckBlock-39   [[1, 512, 28, 28]]    [1, 512, 28, 28]          0</span><br><span class="line">    Conv2D-132       [[1, 512, 28, 28]]    [1, 256, 28, 28]       131,072</span><br><span class="line">  BatchNorm2D-132    [[1, 256, 28, 28]]    [1, 256, 28, 28]        1,024</span><br><span class="line">      ReLU-45       [[1, 1024, 14, 14]]   [1, 1024, 14, 14]          0</span><br><span class="line">    Conv2D-133       [[1, 256, 28, 28]]    [1, 256, 14, 14]       589,824</span><br><span class="line">  BatchNorm2D-133    [[1, 256, 14, 14]]    [1, 256, 14, 14]        1,024</span><br><span class="line">    Conv2D-134       [[1, 256, 14, 14]]   [1, 1024, 14, 14]       262,144</span><br><span class="line">  BatchNorm2D-134   [[1, 1024, 14, 14]]   [1, 1024, 14, 14]        4,096</span><br><span class="line">    Conv2D-131       [[1, 512, 28, 28]]   [1, 1024, 14, 14]       524,288</span><br><span class="line">  BatchNorm2D-131   [[1, 1024, 14, 14]]   [1, 1024, 14, 14]        4,096</span><br><span class="line">BottleneckBlock-40   [[1, 512, 28, 28]]   [1, 1024, 14, 14]          0</span><br><span class="line">    Conv2D-135      [[1, 1024, 14, 14]]    [1, 256, 14, 14]       262,144</span><br><span class="line">  BatchNorm2D-135    [[1, 256, 14, 14]]    [1, 256, 14, 14]        1,024</span><br><span class="line">      ReLU-46       [[1, 1024, 14, 14]]   [1, 1024, 14, 14]          0</span><br><span class="line">    Conv2D-136       [[1, 256, 14, 14]]    [1, 256, 14, 14]       589,824</span><br><span class="line">  BatchNorm2D-136    [[1, 256, 14, 14]]    [1, 256, 14, 14]        1,024</span><br><span class="line">    Conv2D-137       [[1, 256, 14, 14]]   [1, 1024, 14, 14]       262,144</span><br><span class="line">  BatchNorm2D-137   [[1, 1024, 14, 14]]   [1, 1024, 14, 14]        4,096</span><br><span class="line">BottleneckBlock-41  [[1, 1024, 14, 14]]   [1, 1024, 14, 14]          0</span><br><span class="line">    Conv2D-138      [[1, 1024, 14, 14]]    [1, 256, 14, 14]       262,144</span><br><span class="line">  BatchNorm2D-138    [[1, 256, 14, 14]]    [1, 256, 14, 14]        1,024</span><br><span class="line">      ReLU-47       [[1, 1024, 14, 14]]   [1, 1024, 14, 14]          0</span><br><span class="line">    Conv2D-139       [[1, 256, 14, 14]]    [1, 256, 14, 14]       589,824</span><br><span class="line">  BatchNorm2D-139    [[1, 256, 14, 14]]    [1, 256, 14, 14]        1,024</span><br><span class="line">    Conv2D-140       [[1, 256, 14, 14]]   [1, 1024, 14, 14]       262,144</span><br><span class="line">  BatchNorm2D-140   [[1, 1024, 14, 14]]   [1, 1024, 14, 14]        4,096</span><br><span class="line">BottleneckBlock-42  [[1, 1024, 14, 14]]   [1, 1024, 14, 14]          0</span><br><span class="line">    Conv2D-141      [[1, 1024, 14, 14]]    [1, 256, 14, 14]       262,144</span><br><span class="line">  BatchNorm2D-141    [[1, 256, 14, 14]]    [1, 256, 14, 14]        1,024</span><br><span class="line">      ReLU-48       [[1, 1024, 14, 14]]   [1, 1024, 14, 14]          0</span><br><span class="line">    Conv2D-142       [[1, 256, 14, 14]]    [1, 256, 14, 14]       589,824</span><br><span class="line">  BatchNorm2D-142    [[1, 256, 14, 14]]    [1, 256, 14, 14]        1,024</span><br><span class="line">    Conv2D-143       [[1, 256, 14, 14]]   [1, 1024, 14, 14]       262,144</span><br><span class="line">  BatchNorm2D-143   [[1, 1024, 14, 14]]   [1, 1024, 14, 14]        4,096</span><br><span class="line">BottleneckBlock-43  [[1, 1024, 14, 14]]   [1, 1024, 14, 14]          0</span><br><span class="line">    Conv2D-144      [[1, 1024, 14, 14]]    [1, 256, 14, 14]       262,144</span><br><span class="line">  BatchNorm2D-144    [[1, 256, 14, 14]]    [1, 256, 14, 14]        1,024</span><br><span class="line">      ReLU-49       [[1, 1024, 14, 14]]   [1, 1024, 14, 14]          0</span><br><span class="line">    Conv2D-145       [[1, 256, 14, 14]]    [1, 256, 14, 14]       589,824</span><br><span class="line">  BatchNorm2D-145    [[1, 256, 14, 14]]    [1, 256, 14, 14]        1,024</span><br><span class="line">    Conv2D-146       [[1, 256, 14, 14]]   [1, 1024, 14, 14]       262,144</span><br><span class="line">  BatchNorm2D-146   [[1, 1024, 14, 14]]   [1, 1024, 14, 14]        4,096</span><br><span class="line">BottleneckBlock-44  [[1, 1024, 14, 14]]   [1, 1024, 14, 14]          0</span><br><span class="line">    Conv2D-147      [[1, 1024, 14, 14]]    [1, 256, 14, 14]       262,144</span><br><span class="line">  BatchNorm2D-147    [[1, 256, 14, 14]]    [1, 256, 14, 14]        1,024</span><br><span class="line">      ReLU-50       [[1, 1024, 14, 14]]   [1, 1024, 14, 14]          0</span><br><span class="line">    Conv2D-148       [[1, 256, 14, 14]]    [1, 256, 14, 14]       589,824</span><br><span class="line">  BatchNorm2D-148    [[1, 256, 14, 14]]    [1, 256, 14, 14]        1,024</span><br><span class="line">    Conv2D-149       [[1, 256, 14, 14]]   [1, 1024, 14, 14]       262,144</span><br><span class="line">  BatchNorm2D-149   [[1, 1024, 14, 14]]   [1, 1024, 14, 14]        4,096</span><br><span class="line">BottleneckBlock-45  [[1, 1024, 14, 14]]   [1, 1024, 14, 14]          0</span><br><span class="line">    Conv2D-151      [[1, 1024, 14, 14]]    [1, 512, 14, 14]       524,288</span><br><span class="line">  BatchNorm2D-151    [[1, 512, 14, 14]]    [1, 512, 14, 14]        2,048</span><br><span class="line">      ReLU-51        [[1, 2048, 7, 7]]     [1, 2048, 7, 7]           0</span><br><span class="line">    Conv2D-152       [[1, 512, 14, 14]]     [1, 512, 7, 7]       2,359,296</span><br><span class="line">  BatchNorm2D-152     [[1, 512, 7, 7]]      [1, 512, 7, 7]         2,048</span><br><span class="line">    Conv2D-153        [[1, 512, 7, 7]]     [1, 2048, 7, 7]       1,048,576</span><br><span class="line">  BatchNorm2D-153    [[1, 2048, 7, 7]]     [1, 2048, 7, 7]         8,192</span><br><span class="line">    Conv2D-150      [[1, 1024, 14, 14]]    [1, 2048, 7, 7]       2,097,152</span><br><span class="line">  BatchNorm2D-150    [[1, 2048, 7, 7]]     [1, 2048, 7, 7]         8,192</span><br><span class="line">BottleneckBlock-46  [[1, 1024, 14, 14]]    [1, 2048, 7, 7]           0</span><br><span class="line">    Conv2D-154       [[1, 2048, 7, 7]]      [1, 512, 7, 7]       1,048,576</span><br><span class="line">  BatchNorm2D-154     [[1, 512, 7, 7]]      [1, 512, 7, 7]         2,048</span><br><span class="line">      ReLU-52        [[1, 2048, 7, 7]]     [1, 2048, 7, 7]           0</span><br><span class="line">    Conv2D-155        [[1, 512, 7, 7]]      [1, 512, 7, 7]       2,359,296</span><br><span class="line">  BatchNorm2D-155     [[1, 512, 7, 7]]      [1, 512, 7, 7]         2,048</span><br><span class="line">    Conv2D-156        [[1, 512, 7, 7]]     [1, 2048, 7, 7]       1,048,576</span><br><span class="line">  BatchNorm2D-156    [[1, 2048, 7, 7]]     [1, 2048, 7, 7]         8,192</span><br><span class="line">BottleneckBlock-47   [[1, 2048, 7, 7]]     [1, 2048, 7, 7]           0</span><br><span class="line">    Conv2D-157       [[1, 2048, 7, 7]]      [1, 512, 7, 7]       1,048,576</span><br><span class="line">  BatchNorm2D-157     [[1, 512, 7, 7]]      [1, 512, 7, 7]         2,048</span><br><span class="line">      ReLU-53        [[1, 2048, 7, 7]]     [1, 2048, 7, 7]           0</span><br><span class="line">    Conv2D-158        [[1, 512, 7, 7]]      [1, 512, 7, 7]       2,359,296</span><br><span class="line">  BatchNorm2D-158     [[1, 512, 7, 7]]      [1, 512, 7, 7]         2,048</span><br><span class="line">    Conv2D-159        [[1, 512, 7, 7]]     [1, 2048, 7, 7]       1,048,576</span><br><span class="line">  BatchNorm2D-159    [[1, 2048, 7, 7]]     [1, 2048, 7, 7]         8,192</span><br><span class="line">BottleneckBlock-48   [[1, 2048, 7, 7]]     [1, 2048, 7, 7]           0</span><br><span class="line">AdaptiveAvgPool2D-3  [[1, 2048, 7, 7]]     [1, 2048, 1, 1]           0</span><br><span class="line">     Linear-7           [[1, 2048]]           [1, 1000]          2,049,000</span><br><span class="line">     ResNet-3        [[1, 3, 224, 224]]       [1, 1000]              0</span><br><span class="line">     Linear-8           [[1, 1000]]            [1, 512]           512,512</span><br><span class="line">      ReLU-54            [[1, 512]]            [1, 512]              0</span><br><span class="line">     Linear-9            [[1, 512]]            [1, 136]           69,768</span><br><span class="line">===============================================================================</span><br><span class="line">Total params: 26,192,432</span><br><span class="line">Trainable params: 26,086,192</span><br><span class="line">Non-trainable params: 106,240</span><br><span class="line">-------------------------------------------------------------------------------</span><br>
…
<figure class="highlight python"><table><tr><td class="code"><pre><span class="line">model = paddle.Model(network)</span><br><span class="line"></span><br><span class="line">model.summary((-<span class="number">1</span>, <span class="number">3</span>, <span class="number">224</span>, <span class="number">224</span>))</span><br></pre></td></tr></table></figure>
<figure class="highlight plaintext"><table><tr><td class="code"><pre><span class="line">-------------------------------------------------------------------------------</span><br><span class="line">   Layer (type)         Input Shape          Output Shape         Param #</span><br><span class="line">===============================================================================</span><br><span class="line">    Conv2D-105       [[1, 3, 224, 224]]   [1, 64, 112, 112]        9,408</span><br><span class="line">  BatchNorm2D-105   [[1, 64, 112, 112]]   [1, 64, 112, 112]         256</span><br><span class="line">      ReLU-35       [[1, 64, 112, 112]]   [1, 64, 112, 112]          0</span><br><span class="line">    MaxPool2D-2     [[1, 64, 112, 112]]    [1, 64, 56, 56]           0</span><br><span class="line">    Conv2D-107       [[1, 64, 56, 56]]     [1, 64, 56, 56]         4,096</span><br><span class="line">  BatchNorm2D-107    [[1, 64, 56, 56]]     [1, 64, 56, 56]          256</span><br><span class="line">      ReLU-36        [[1, 256, 56, 56]]    [1, 256, 56, 56]          0</span><br><span class="line">    Conv2D-108       [[1, 64, 56, 56]]     [1, 64, 56, 56]        36,864</span><br><span class="line">  BatchNorm2D-108    [[1, 64, 56, 56]]     [1, 64, 56, 56]          256</span><br><span class="line">    Conv2D-109       [[1, 64, 56, 56]]     [1, 256, 56, 56]       16,384</span><br><span class="line">  BatchNorm2D-109    [[1, 256, 56, 56]]    [1, 256, 56, 56]        1,024</span><br><span class="line">    Conv2D-106       [[1, 64, 56, 56]]     [1, 256, 56, 56]       16,384</span><br><span class="line">  BatchNorm2D-106    [[1, 256, 56, 56]]    [1, 256, 56, 56]        1,024</span><br><span class="line">BottleneckBlock-34   [[1, 64, 56, 56]]     [1, 256, 56, 56]          0</span><br><span class="line">    Conv2D-110       [[1, 256, 56, 56]]    [1, 64, 56, 56]        16,384</span><br><span class="line">  BatchNorm2D-110    [[1, 64, 56, 56]]     [1, 64, 56, 56]          256</span><br><span class="line">      ReLU-37        [[1, 256, 56, 56]]    [1, 256, 56, 56]          0</span><br><span class="line">    Conv2D-111       [[1, 64, 56, 56]]     [1, 64, 56, 56]        36,864</span><br><span class="line">  BatchNorm2D-111    [[1, 64, 56, 56]]     [1, 64, 56, 56]          256</span><br><span class="line">    Conv2D-112       [[1, 64, 56, 56]]     [1, 256, 56, 56]       16,384</span><br><span class="line">  BatchNorm2D-112    [[1, 256, 56, 56]]    [1, 256, 56, 56]        1,024</span><br><span class="line">BottleneckBlock-35   [[1, 256, 56, 56]]    [1, 256, 56, 56]          0</span><br><span class="line">    Conv2D-113       [[1, 256, 56, 56]]    [1, 64, 56, 56]        16,384</span><br><span class="line">  BatchNorm2D-113    [[1, 64, 56, 56]]     [1, 64, 56, 56]          256</span><br><span class="line">      ReLU-38        [[1, 256, 56, 56]]    [1, 256, 56, 56]          0</span><br><span class="line">    Conv2D-114       [[1, 64, 56, 56]]     [1, 64, 56, 56]        36,864</span><br><span class="line">  BatchNorm2D-114    [[1, 64, 56, 56]]     [1, 64, 56, 56]          256</span><br><span class="line">    Conv2D-115       [[1, 64, 56, 56]]     [1, 256, 56, 56]       16,384</span><br><span class="line">  BatchNorm2D-115    [[1, 256, 56, 56]]    [1, 256, 56, 56]        1,024</span><br><span class="line">BottleneckBlock-36   [[1, 256, 56, 56]]    [1, 256, 56, 56]          0</span><br><span class="line">    Conv2D-117       [[1, 256, 56, 56]]    [1, 128, 56, 56]       32,768</span><br><span class="line">  BatchNorm2D-117    [[1, 128, 56, 56]]    [1, 128, 56, 56]         512</span><br><span class="line">      ReLU-39        [[1, 512, 28, 28]]    [1, 512, 28, 28]          0</span><br><span class="line">    Conv2D-118       [[1, 128, 56, 56]]    [1, 128, 28, 28]       147,456</span><br><span class="line">  BatchNorm2D-118    [[1, 128, 28, 28]]    [1, 128, 28, 28]         512</span><br><span class="line">    Conv2D-119       [[1, 128, 28, 28]]    [1, 512, 28, 28]       65,536</span><br><span class="line">  BatchNorm2D-119    [[1, 512, 28, 28]]    [1, 512, 28, 28]        2,048</span><br><span class="line">    Conv2D-116       [[1, 256, 56, 56]]    [1, 512, 28, 28]       131,072</span><br><span class="line">  BatchNorm2D-116    [[1, 512, 28, 28]]    [1, 512, 28, 28]        2,048</span><br><span class="line">BottleneckBlock-37   [[1, 256, 56, 56]]    [1, 512, 28, 28]          0</span><br><span class="line">    Conv2D-120       [[1, 512, 28, 28]]    [1, 128, 28, 28]       65,536</span><br><span class="line">  BatchNorm2D-120    [[1, 128, 28, 28]]    [1, 128, 28, 28]         512</span><br><span class="line">      ReLU-40        [[1, 512, 28, 28]]    [1, 512, 28, 28]          0</span><br><span class="line">    Conv2D-121       [[1, 128, 28, 28]]    [1, 128, 28, 28]       147,456</span><br><span class="line">  BatchNorm2D-121    [[1, 128, 28, 28]]    [1, 128, 28, 28]         512</span><br><span class="line">    Conv2D-122       [[1, 128, 28, 28]]    [1, 512, 28, 28]       65,536</span><br><span class="line">  BatchNorm2D-122    [[1, 512, 28, 28]]    [1, 512, 28, 28]        2,048</span><br><span class="line">BottleneckBlock-38   [[1, 512, 28, 28]]    [1, 512, 28, 28]          0</span><br><span class="line">    Conv2D-123       [[1, 512, 28, 28]]    [1, 128, 28, 28]       65,536</span><br><span class="line">  BatchNorm2D-123    [[1, 128, 28, 28]]    [1, 128, 28, 28]         512</span><br><span class="line">      ReLU-41        [[1, 512, 28, 28]]    [1, 512, 28, 28]          0</span><br><span class="line">    Conv2D-124       [[1, 128, 28, 28]]    [1, 128, 28, 28]       147,456</span><br><span class="line">  BatchNorm2D-124    [[1, 128, 28, 28]]    [1, 128, 28, 28]         512</span><br><span class="line">    Conv2D-125       [[1, 128, 28, 28]]    [1, 512, 28, 28]       65,536</span><br><span class="line">  BatchNorm2D-125    [[1, 512, 28, 28]]    [1, 512, 28, 28]        2,048</span><br><span class="line">BottleneckBlock-39   [[1, 512, 28, 28]]    [1, 512, 28, 28]          0</span><br><span class="line">    Conv2D-126       [[1, 512, 28, 28]]    [1, 128, 28, 28]       65,536</span><br><span class="line">  BatchNorm2D-126    [[1, 128, 28, 28]]    [1, 128, 28, 28]         512</span><br><span class="line">      ReLU-42        [[1, 512, 28, 28]]    [1, 512, 28, 28]          0</span><br><span class="line">    Conv2D-127       [[1, 128, 28, 28]]    [1, 128, 28, 28]       147,456</span><br><span class="line">  BatchNorm2D-127    [[1, 128, 28, 28]]    [1, 128, 28, 28]         512</span><br><span class="line">    Conv2D-128       [[1, 128, 28, 28]]    [1, 512, 28, 28]       65,536</span><br><span class="line">  BatchNorm2D-128    [[1, 512, 28, 28]]    [1, 512, 28, 28]        2,048</span><br><span class="line">BottleneckBlock-40   [[1, 512, 28, 28]]    [1, 512, 28, 28]          0</span><br><span class="line">    Conv2D-130       [[1, 512, 28, 28]]    [1, 256, 28, 28]       131,072</span><br><span class="line">  BatchNorm2D-130    [[1, 256, 28, 28]]    [1, 256, 28, 28]        1,024</span><br><span class="line">      ReLU-43       [[1, 1024, 14, 14]]   [1, 1024, 14, 14]          0</span><br><span class="line">    Conv2D-131       [[1, 256, 28, 28]]    [1, 256, 14, 14]       589,824</span><br><span class="line">  BatchNorm2D-131    [[1, 256, 14, 14]]    [1, 256, 14, 14]        1,024</span><br><span class="line">    Conv2D-132       [[1, 256, 14, 14]]   [1, 1024, 14, 14]       262,144</span><br><span class="line">  BatchNorm2D-132   [[1, 1024, 14, 14]]   [1, 1024, 14, 14]        4,096</span><br><span class="line">    Conv2D-129       [[1, 512, 28, 28]]   [1, 1024, 14, 14]       524,288</span><br><span class="line">  BatchNorm2D-129   [[1, 1024, 14, 14]]   [1, 1024, 14, 14]        4,096</span><br><span class="line">BottleneckBlock-41   [[1, 512, 28, 28]]   [1, 1024, 14, 14]          0</span><br><span class="line">    Conv2D-133      [[1, 1024, 14, 14]]    [1, 256, 14, 14]       262,144</span><br><span class="line">  BatchNorm2D-133    [[1, 256, 14, 14]]    [1, 256, 14, 14]        1,024</span><br><span class="line">      ReLU-44       [[1, 1024, 14, 14]]   [1, 1024, 14, 14]          0</span><br><span class="line">    Conv2D-134       [[1, 256, 14, 14]]    [1, 256, 14, 14]       589,824</span><br><span class="line">  BatchNorm2D-134    [[1, 256, 14, 14]]    [1, 256, 14, 14]        1,024</span><br><span class="line">    Conv2D-135       [[1, 256, 14, 14]]   [1, 1024, 14, 14]       262,144</span><br><span class="line">  BatchNorm2D-135   [[1, 1024, 14, 14]]   [1, 1024, 14, 14]        4,096</span><br><span class="line">BottleneckBlock-42  [[1, 1024, 14, 14]]   [1, 1024, 14, 14]          0</span><br><span class="line">    Conv2D-136      [[1, 1024, 14, 14]]    [1, 256, 14, 14]       262,144</span><br><span class="line">  BatchNorm2D-136    [[1, 256, 14, 14]]    [1, 256, 14, 14]        1,024</span><br><span class="line">      ReLU-45       [[1, 1024, 14, 14]]   [1, 1024, 14, 14]          0</span><br><span class="line">    Conv2D-137       [[1, 256, 14, 14]]    [1, 256, 14, 14]       589,824</span><br><span class="line">  BatchNorm2D-137    [[1, 256, 14, 14]]    [1, 256, 14, 14]        1,024</span><br><span class="line">    Conv2D-138       [[1, 256, 14, 14]]   [1, 1024, 14, 14]       262,144</span><br><span class="line">  BatchNorm2D-138   [[1, 1024, 14, 14]]   [1, 1024, 14, 14]        4,096</span><br><span class="line">BottleneckBlock-43  [[1, 1024, 14, 14]]   [1, 1024, 14, 14]          0</span><br><span class="line">    Conv2D-139      [[1, 1024, 14, 14]]    [1, 256, 14, 14]       262,144</span><br><span class="line">  BatchNorm2D-139    [[1, 256, 14, 14]]    [1, 256, 14, 14]        1,024</span><br><span class="line">      ReLU-46       [[1, 1024, 14, 14]]   [1, 1024, 14, 14]          0</span><br><span class="line">    Conv2D-140       [[1, 256, 14, 14]]    [1, 256, 14, 14]       589,824</span><br><span class="line">  BatchNorm2D-140    [[1, 256, 14, 14]]    [1, 256, 14, 14]        1,024</span><br><span class="line">    Conv2D-141       [[1, 256, 14, 14]]   [1, 1024, 14, 14]       262,144</span><br><span class="line">  BatchNorm2D-141   [[1, 1024, 14, 14]]   [1, 1024, 14, 14]        4,096</span><br><span class="line">BottleneckBlock-44  [[1, 1024, 14, 14]]   [1, 1024, 14, 14]          0</span><br><span class="line">    Conv2D-142      [[1, 1024, 14, 14]]    [1, 256, 14, 14]       262,144</span><br><span class="line">  BatchNorm2D-142    [[1, 256, 14, 14]]    [1, 256, 14, 14]        1,024</span><br><span class="line">      ReLU-47       [[1, 1024, 14, 14]]   [1, 1024, 14, 14]          0</span><br><span class="line">    Conv2D-143       [[1, 256, 14, 14]]    [1, 256, 14, 14]       589,824</span><br><span class="line">  BatchNorm2D-143    [[1, 256, 14, 14]]    [1, 256, 14, 14]        1,024</span><br><span class="line">    Conv2D-144       [[1, 256, 14, 14]]   [1, 1024, 14, 14]       262,144</span><br><span class="line">  BatchNorm2D-144   [[1, 1024, 14, 14]]   [1, 1024, 14, 14]        4,096</span><br><span class="line">BottleneckBlock-45  [[1, 1024, 14, 14]]   [1, 1024, 14, 14]          0</span><br><span class="line">    Conv2D-145      [[1, 1024, 14, 14]]    [1, 256, 14, 14]       262,144</span><br><span class="line">  BatchNorm2D-145    [[1, 256, 14, 14]]    [1, 256, 14, 14]        1,024</span><br><span class="line">      ReLU-48       [[1, 1024, 14, 14]]   [1, 1024, 14, 14]          0</span><br><span class="line">    Conv2D-146       [[1, 256, 14, 14]]    [1, 256, 14, 14]       589,824</span><br><span class="line">  BatchNorm2D-146    [[1, 256, 14, 14]]    [1, 256, 14, 14]        1,024</span><br><span class="line">    Conv2D-147       [[1, 256, 14, 14]]   [1, 1024, 14, 14]       262,144</span><br><span class="line">  BatchNorm2D-147   [[1, 1024, 14, 14]]   [1, 1024, 14, 14]        4,096</span><br><span class="line">BottleneckBlock-46  [[1, 1024, 14, 14]]   [1, 1024, 14, 14]          0</span><br><span class="line">    Conv2D-148      [[1, 1024, 14, 14]]    [1, 256, 14, 14]       262,144</span><br><span class="line">  BatchNorm2D-148    [[1, 256, 14, 14]]    [1, 256, 14, 14]        1,024</span><br><span class="line">      ReLU-49       [[1, 1024, 14, 14]]   [1, 1024, 14, 14]          0</span><br><span class="line">    Conv2D-149       [[1, 256, 14, 14]]    [1, 256, 14, 14]       589,824</span><br><span class="line">  BatchNorm2D-149    [[1, 256, 14, 14]]    [1, 256, 14, 14]        1,024</span><br><span class="line">    Conv2D-150       [[1, 256, 14, 14]]   [1, 1024, 14, 14]       262,144</span><br><span class="line">  BatchNorm2D-150   [[1, 1024, 14, 14]]   [1, 1024, 14, 14]        4,096</span><br><span class="line">BottleneckBlock-47  [[1, 1024, 14, 14]]   [1, 1024, 14, 14]          0</span><br><span class="line">    Conv2D-151      [[1, 1024, 14, 14]]    [1, 256, 14, 14]       262,144</span><br><span class="line">  BatchNorm2D-151    [[1, 256, 14, 14]]    [1, 256, 14, 14]        1,024</span><br><span class="line">      ReLU-50       [[1, 1024, 14, 14]]   [1, 1024, 14, 14]          0</span><br><span class="line">    Conv2D-152       [[1, 256, 14, 14]]    [1, 256, 14, 14]       589,824</span><br><span class="line">  BatchNorm2D-152    [[1, 256, 14, 14]]    [1, 256, 14, 14]        1,024</span><br><span class="line">    Conv2D-153       [[1, 256, 14, 14]]   [1, 1024, 14, 14]       262,144</span><br><span class="line">  BatchNorm2D-153   [[1, 1024, 14, 14]]   [1, 1024, 14, 14]        4,096</span><br><span class="line">BottleneckBlock-48  [[1, 1024, 14, 14]]   [1, 1024, 14, 14]          0</span><br><span class="line">    Conv2D-154      [[1, 1024, 14, 14]]    [1, 256, 14, 14]       262,144</span><br><span class="line">  BatchNorm2D-154    [[1, 256, 14, 14]]    [1, 256, 14, 14]        1,024</span><br><span class="line">      ReLU-51       [[1, 1024, 14, 14]]   [1, 1024, 14, 14]          0</span><br><span class="line">    Conv2D-155       [[1, 256, 14, 14]]    [1, 256, 14, 14]       589,824</span><br><span class="line">  BatchNorm2D-155    [[1, 256, 14, 14]]    [1, 256, 14, 14]        1,024</span><br><span class="line">    Conv2D-156       [[1, 256, 14, 14]]   [1, 1024, 14, 14]       262,144</span><br><span class="line">  BatchNorm2D-156   [[1, 1024, 14, 14]]   [1, 1024, 14, 14]        4,096</span><br><span class="line">BottleneckBlock-49  [[1, 1024, 14, 14]]   [1, 1024, 14, 14]          0</span><br><span class="line">    Conv2D-157      [[1, 1024, 14, 14]]    [1, 256, 14, 14]       262,144</span><br><span class="line">  BatchNorm2D-157    [[1, 256, 14, 14]]    [1, 256, 14, 14]        1,024</span><br><span class="line">      ReLU-52       [[1, 1024, 14, 14]]   [1, 1024, 14, 14]          0</span><br><span class="line">    Conv2D-158       [[1, 256, 14, 14]]    [1, 256, 14, 14]       589,824</span><br><span class="line">  BatchNorm2D-158    [[1, 256, 14, 14]]    [1, 256, 14, 14]        1,024</span><br><span class="line">    Conv2D-159       [[1, 256, 14, 14]]   [1, 1024, 14, 14]       262,144</span><br><span class="line">  BatchNorm2D-159   [[1, 1024, 14, 14]]   [1, 1024, 14, 14]        4,096</span><br><span class="line">BottleneckBlock-50  [[1, 1024, 14, 14]]   [1, 1024, 14, 14]          0</span><br><span class="line">    Conv2D-160      [[1, 1024, 14, 14]]    [1, 256, 14, 14]       262,144</span><br><span class="line">  BatchNorm2D-160    [[1, 256, 14, 14]]    [1, 256, 14, 14]        1,024</span><br><span class="line">      ReLU-53       [[1, 1024, 14, 14]]   [1, 1024, 14, 14]          0</span><br><span class="line">    Conv2D-161       [[1, 256, 14, 14]]    [1, 256, 14, 14]       589,824</span><br><span class="line">  BatchNorm2D-161    [[1, 256, 14, 14]]    [1, 256, 14, 14]        1,024</span><br><span class="line">    Conv2D-162       [[1, 256, 14, 14]]   [1, 1024, 14, 14]       262,144</span><br><span class="line">  BatchNorm2D-162   [[1, 1024, 14, 14]]   [1, 1024, 14, 14]        4,096</span><br><span class="line">BottleneckBlock-51  [[1, 1024, 14, 14]]   [1, 1024, 14, 14]          0</span><br><span class="line">    Conv2D-163      [[1, 1024, 14, 14]]    [1, 256, 14, 14]       262,144</span><br><span class="line">  BatchNorm2D-163    [[1, 256, 14, 14]]    [1, 256, 14, 14]        1,024</span><br><span class="line">      ReLU-54       [[1, 1024, 14, 14]]   [1, 1024, 14, 14]          0</span><br><span class="line">    Conv2D-164       [[1, 256, 14, 14]]    [1, 256, 14, 14]       589,824</span><br><span class="line">  BatchNorm2D-164    [[1, 256, 14, 14]]    [1, 256, 14, 14]        1,024</span><br><span class="line">    Conv2D-165       [[1, 256, 14, 14]]   [1, 1024, 14, 14]       262,144</span><br><span class="line">  BatchNorm2D-165   [[1, 1024, 14, 14]]   [1, 1024, 14, 14]        4,096</span><br><span class="line">BottleneckBlock-52  [[1, 1024, 14, 14]]   [1, 1024, 14, 14]          0</span><br><span class="line">    Conv2D-166      [[1, 1024, 14, 14]]    [1, 256, 14, 14]       262,144</span><br><span class="line">  BatchNorm2D-166    [[1, 256, 14, 14]]    [1, 256, 14, 14]        1,024</span><br><span class="line">      ReLU-55       [[1, 1024, 14, 14]]   [1, 1024, 14, 14]          0</span><br><span class="line">    Conv2D-167       [[1, 256, 14, 14]]    [1, 256, 14, 14]       589,824</span><br><span class="line">  BatchNorm2D-167    [[1, 256, 14, 14]]    [1, 256, 14, 14]        1,024</span><br><span class="line">    Conv2D-168       [[1, 256, 14, 14]]   [1, 1024, 14, 14]       262,144</span><br><span class="line">  BatchNorm2D-168   [[1, 1024, 14, 14]]   [1, 1024, 14, 14]        4,096</span><br><span class="line">BottleneckBlock-53  [[1, 1024, 14, 14]]   [1, 1024, 14, 14]          0</span><br><span class="line">    Conv2D-169      [[1, 1024, 14, 14]]    [1, 256, 14, 14]       262,144</span><br><span class="line">  BatchNorm2D-169    [[1, 256, 14, 14]]    [1, 256, 14, 14]        1,024</span><br><span class="line">      ReLU-56       [[1, 1024, 14, 14]]   [1, 1024, 14, 14]          0</span><br><span class="line">    Conv2D-170       [[1, 256, 14, 14]]    [1, 256, 14, 14]       589,824</span><br><span class="line">  BatchNorm2D-170    [[1, 256, 14, 14]]    [1, 256, 14, 14]        1,024</span><br><span class="line">    Conv2D-171       [[1, 256, 14, 14]]   [1, 1024, 14, 14]       262,144</span><br><span class="line">  BatchNorm2D-171   [[1, 1024, 14, 14]]   [1, 1024, 14, 14]        4,096</span><br><span class="line">BottleneckBlock-54  [[1, 1024, 14, 14]]   [1, 1024, 14, 14]          0</span><br><span class="line">    Conv2D-172      [[1, 1024, 14, 14]]    [1, 256, 14, 14]       262,144</span><br><span class="line">  BatchNorm2D-172    [[1, 256, 14, 14]]    [1, 256, 14, 14]        1,024</span><br><span class="line">      ReLU-57       [[1, 1024, 14, 14]]   [1, 1024, 14, 14]          0</span><br><span class="line">    Conv2D-173       [[1, 256, 14, 14]]    [1, 256, 14, 14]       589,824</span><br><span class="line">  BatchNorm2D-173    [[1, 256, 14, 14]]    [1, 256, 14, 14]        1,024</span><br><span class="line">    Conv2D-174       [[1, 256, 14, 14]]   [1, 1024, 14, 14]       262,144</span><br><span class="line">  BatchNorm2D-174   [[1, 1024, 14, 14]]   [1, 1024, 14, 14]        4,096</span><br><span class="line">BottleneckBlock-55  [[1, 1024, 14, 14]]   [1, 1024, 14, 14]          0</span><br><span class="line">    Conv2D-175      [[1, 1024, 14, 14]]    [1, 256, 14, 14]       262,144</span><br><span class="line">  BatchNorm2D-175    [[1, 256, 14, 14]]    [1, 256, 14, 14]        1,024</span><br><span class="line">      ReLU-58       [[1, 1024, 14, 14]]   [1, 1024, 14, 14]          0</span><br><span class="line">    Conv2D-176       [[1, 256, 14, 14]]    [1, 256, 14, 14]       589,824</span><br><span class="line">  BatchNorm2D-176    [[1, 256, 14, 14]]    [1, 256, 14, 14]        1,024</span><br><span class="line">    Conv2D-177       [[1, 256, 14, 14]]   [1, 1024, 14, 14]       262,144</span><br><span class="line">  BatchNorm2D-177   [[1, 1024, 14, 14]]   [1, 1024, 14, 14]        4,096</span><br><span class="line">BottleneckBlock-56  [[1, 1024, 14, 14]]   [1, 1024, 14, 14]          0</span><br><span class="line">    Conv2D-178      [[1, 1024, 14, 14]]    [1, 256, 14, 14]       262,144</span><br><span class="line">  BatchNorm2D-178    [[1, 256, 14, 14]]    [1, 256, 14, 14]        1,024</span><br><span class="line">      ReLU-59       [[1, 1024, 14, 14]]   [1, 1024, 14, 14]          0</span><br><span class="line">    Conv2D-179       [[1, 256, 14, 14]]    [1, 256, 14, 14]       589,824</span><br><span class="line">  BatchNorm2D-179    [[1, 256, 14, 14]]    [1, 256, 14, 14]        1,024</span><br><span class="line">    Conv2D-180       [[1, 256, 14, 14]]   [1, 1024, 14, 14]       262,144</span><br><span class="line">  BatchNorm2D-180   [[1, 1024, 14, 14]]   [1, 1024, 14, 14]        4,096</span><br><span class="line">BottleneckBlock-57  [[1, 1024, 14, 14]]   [1, 1024, 14, 14]          0</span><br><span class="line">    Conv2D-181      [[1, 1024, 14, 14]]    [1, 256, 14, 14]       262,144</span><br><span class="line">  BatchNorm2D-181    [[1, 256, 14, 14]]    [1, 256, 14, 14]        1,024</span><br><span class="line">      ReLU-60       [[1, 1024, 14, 14]]   [1, 1024, 14, 14]          0</span><br><span class="line">    Conv2D-182       [[1, 256, 14, 14]]    [1, 256, 14, 14]       589,824</span><br><span class="line">  BatchNorm2D-182    [[1, 256, 14, 14]]    [1, 256, 14, 14]        1,024</span><br><span class="line">    Conv2D-183       [[1, 256, 14, 14]]   [1, 1024, 14, 14]       262,144</span><br><span class="line">  BatchNorm2D-183   [[1, 1024, 14, 14]]   [1, 1024, 14, 14]        4,096</span><br><span class="line">BottleneckBlock-58  [[1, 1024, 14, 14]]   [1, 1024, 14, 14]          0</span><br><span class="line">    Conv2D-184      [[1, 1024, 14, 14]]    [1, 256, 14, 14]       262,144</span><br><span class="line">  BatchNorm2D-184    [[1, 256, 14, 14]]    [1, 256, 14, 14]        1,024</span><br><span class="line">      ReLU-61       [[1, 1024, 14, 14]]   [1, 1024, 14, 14]          0</span><br><span class="line">    Conv2D-185       [[1, 256, 14, 14]]    [1, 256, 14, 14]       589,824</span><br><span class="line">  BatchNorm2D-185    [[1, 256, 14, 14]]    [1, 256, 14, 14]        1,024</span><br><span class="line">    Conv2D-186       [[1, 256, 14, 14]]   [1, 1024, 14, 14]       262,144</span><br><span class="line">  BatchNorm2D-186   [[1, 1024, 14, 14]]   [1, 1024, 14, 14]        4,096</span><br><span class="line">BottleneckBlock-59  [[1, 1024, 14, 14]]   [1, 1024, 14, 14]          0</span><br><span class="line">    Conv2D-187      [[1, 1024, 14, 14]]    [1, 256, 14, 14]       262,144</span><br><span class="line">  BatchNorm2D-187    [[1, 256, 14, 14]]    [1, 256, 14, 14]        1,024</span><br><span class="line">      ReLU-62       [[1, 1024, 14, 14]]   [1, 1024, 14, 14]          0</span><br><span class="line">    Conv2D-188       [[1, 256, 14, 14]]    [1, 256, 14, 14]       589,824</span><br><span class="line">  BatchNorm2D-188    [[1, 256, 14, 14]]    [1, 256, 14, 14]        1,024</span><br><span class="line">    Conv2D-189       [[1, 256, 14, 14]]   [1, 1024, 14, 14]       262,144</span><br><span class="line">  BatchNorm2D-189   [[1, 1024, 14, 14]]   [1, 1024, 14, 14]        4,096</span><br><span class="line">BottleneckBlock-60  [[1, 1024, 14, 14]]   [1, 1024, 14, 14]          0</span><br><span class="line">    Conv2D-190      [[1, 1024, 14, 14]]    [1, 256, 14, 14]       262,144</span><br><span class="line">  BatchNorm2D-190    [[1, 256, 14, 14]]    [1, 256, 14, 14]        1,024</span><br><span class="line">      ReLU-63       [[1, 1024, 14, 14]]   [1, 1024, 14, 14]          0</span><br><span class="line">    Conv2D-191       [[1, 256, 14, 14]]    [1, 256, 14, 14]       589,824</span><br><span class="line">  BatchNorm2D-191    [[1, 256, 14, 14]]    [1, 256, 14, 14]        1,024</span><br><span class="line">    Conv2D-192       [[1, 256, 14, 14]]   [1, 1024, 14, 14]       262,144</span><br><span class="line">  BatchNorm2D-192   [[1, 1024, 14, 14]]   [1, 1024, 14, 14]        4,096</span><br><span class="line">BottleneckBlock-61  [[1, 1024, 14, 14]]   [1, 1024, 14, 14]          0</span><br><span class="line">    Conv2D-193      [[1, 1024, 14, 14]]    [1, 256, 14, 14]       262,144</span><br><span class="line">  BatchNorm2D-193    [[1, 256, 14, 14]]    [1, 256, 14, 14]        1,024</span><br><span class="line">      ReLU-64       [[1, 1024, 14, 14]]   [1, 1024, 14, 14]          0</span><br><span class="line">    Conv2D-194       [[1, 256, 14, 14]]    [1, 256, 14, 14]       589,824</span><br><span class="line">  BatchNorm2D-194    [[1, 256, 14, 14]]    [1, 256, 14, 14]        1,024</span><br><span class="line">    Conv2D-195       [[1, 256, 14, 14]]   [1, 1024, 14, 14]       262,144</span><br><span class="line">  BatchNorm2D-195   [[1, 1024, 14, 14]]   [1, 1024, 14, 14]        4,096</span><br><span class="line">BottleneckBlock-62  [[1, 1024, 14, 14]]   [1, 1024, 14, 14]          0</span><br><span class="line">    Conv2D-196      [[1, 1024, 14, 14]]    [1, 256, 14, 14]       262,144</span><br><span class="line">  BatchNorm2D-196    [[1, 256, 14, 14]]    [1, 256, 14, 14]        1,024</span><br><span class="line">      ReLU-65       [[1, 1024, 14, 14]]   [1, 1024, 14, 14]          0</span><br><span class="line">    Conv2D-197       [[1, 256, 14, 14]]    [1, 256, 14, 14]       589,824</span><br><span class="line">  BatchNorm2D-197    [[1, 256, 14, 14]]    [1, 256, 14, 14]        1,024</span><br><span class="line">    Conv2D-198       [[1, 256, 14, 14]]   [1, 1024, 14, 14]       262,144</span><br><span class="line">  BatchNorm2D-198   [[1, 1024, 14, 14]]   [1, 1024, 14, 14]        4,096</span><br><span class="line">BottleneckBlock-63  [[1, 1024, 14, 14]]   [1, 1024, 14, 14]          0</span><br><span class="line">    Conv2D-200      [[1, 1024, 14, 14]]    [1, 512, 14, 14]       524,288</span><br><span class="line">  BatchNorm2D-200    [[1, 512, 14, 14]]    [1, 512, 14, 14]        2,048</span><br><span class="line">      ReLU-66        [[1, 2048, 7, 7]]     [1, 2048, 7, 7]           0</span><br><span class="line">    Conv2D-201       [[1, 512, 14, 14]]     [1, 512, 7, 7]       2,359,296</span><br><span class="line">  BatchNorm2D-201     [[1, 512, 7, 7]]      [1, 512, 7, 7]         2,048</span><br><span class="line">    Conv2D-202        [[1, 512, 7, 7]]     [1, 2048, 7, 7]       1,048,576</span><br><span class="line">  BatchNorm2D-202    [[1, 2048, 7, 7]]     [1, 2048, 7, 7]         8,192</span><br><span class="line">    Conv2D-199      [[1, 1024, 14, 14]]    [1, 2048, 7, 7]       2,097,152</span><br><span class="line">  BatchNorm2D-199    [[1, 2048, 7, 7]]     [1, 2048, 7, 7]         8,192</span><br><span class="line">BottleneckBlock-64  [[1, 1024, 14, 14]]    [1, 2048, 7, 7]           0</span><br><span class="line">    Conv2D-203       [[1, 2048, 7, 7]]      [1, 512, 7, 7]       1,048,576</span><br><span class="line">  BatchNorm2D-203     [[1, 512, 7, 7]]      [1, 512, 7, 7]         2,048</span><br><span class="line">      ReLU-67        [[1, 2048, 7, 7]]     [1, 2048, 7, 7]           0</span><br><span class="line">    Conv2D-204        [[1, 512, 7, 7]]      [1, 512, 7, 7]       2,359,296</span><br><span class="line">  BatchNorm2D-204     [[1, 512, 7, 7]]      [1, 512, 7, 7]         2,048</span><br><span class="line">    Conv2D-205        [[1, 512, 7, 7]]     [1, 2048, 7, 7]       1,048,576</span><br><span class="line">  BatchNorm2D-205    [[1, 2048, 7, 7]]     [1, 2048, 7, 7]         8,192</span><br><span class="line">BottleneckBlock-65   [[1, 2048, 7, 7]]     [1, 2048, 7, 7]           0</span><br><span class="line">    Conv2D-206       [[1, 2048, 7, 7]]      [1, 512, 7, 7]       1,048,576</span><br><span class="line">  BatchNorm2D-206     [[1, 512, 7, 7]]      [1, 512, 7, 7]         2,048</span><br><span class="line">      ReLU-68        [[1, 2048, 7, 7]]     [1, 2048, 7, 7]           0</span><br><span class="line">    Conv2D-207        [[1, 512, 7, 7]]      [1, 512, 7, 7]       2,359,296</span><br><span class="line">  BatchNorm2D-207     [[1, 512, 7, 7]]      [1, 512, 7, 7]         2,048</span><br><span class="line">    Conv2D-208        [[1, 512, 7, 7]]     [1, 2048, 7, 7]       1,048,576</span><br><span class="line">  BatchNorm2D-208    [[1, 2048, 7, 7]]     [1, 2048, 7, 7]         8,192</span><br><span class="line">BottleneckBlock-66   [[1, 2048, 7, 7]]     [1, 2048, 7, 7]           0</span><br><span class="line">AdaptiveAvgPool2D-2  [[1, 2048, 7, 7]]     [1, 2048, 1, 1]           0</span><br><span class="line">     Linear-2           [[1, 2048]]            [1, 100]           204,900</span><br><span class="line">===============================================================================</span><br><span class="line">Total params: 42,810,404</span><br><span class="line">Trainable params: 42,599,716</span><br><span class="line">Non-trainable params: 210,688</span><br><span class="line">-------------------------------------------------------------------------------</span><br>
…
